mnist_model_fully_connected.pt (torch, 822703 bytes, 8 tensors)

weight f4 [32, 1, 3, 3]
0.25309113 -0.062289506 -1.0683337 0.20826319 1.2880449 0.34979108 -0.79425466 0.22765145
0.33039138 -0.69329476 0.32999074 0.2722282 -0.46400934 0.34698814 0.41763577 -0.3452845
0.4715653 0.35672432 -0.38798514 -0.2411172 -0.10862094 -0.468088 -0.34909242 0.1841363
-0.20484217 0.4570445 0.5839286 -0.24328402 -0.35173783 -0.090881474 0.111659 0.25088173
-0.0034700122 -0.18859415 0.16577403 0.3606061 0.24997972 0.4741406 -0.14010552 0.25087032
0.04089929 -0.6756958 0.5761778 -0.12587546 -0.045639638 0.1510389 -0.68952566 -0.32811734
0.5059191 -0.5552893 -0.83704376 0.9169025 0.8721848 0.2106376 -0.23406135 -0.6700082
-0.34035555 -0.5029015 0.01525354 0.76017165 0.6942843 0.61650854 -0.24530819 0.20513673
-0.4934298 -0.22911607 0.36512434 -0.32920203 0.1210822 0.35495073 -0.03683315 0.19399911
0.4031191 -0.30500737 -0.9732724 0.27842632 0.6781148 0.06672085 -0.11431737 0.39029977
0.3299846 -0.1626685 0.20110704 -0.41327226 0.32068065 0.18677664 -0.9141063 0.6616101
0.59100246 -0.5185997 -0.016728371 0.17280483 0.00474246 -0.039175533 -0.21601878 0.27028424
-0.31316376 0.30741566 0.00022014584 0.15750599 -0.3726196 -0.17110406 -0.53996164 -0.16153736
-0.33586755 -0.11204864 0.073992245 0.029028615 -0.28501716 -0.22676618 -0.015310579 -0.36126226
-0.46177983 -0.37982407 0.48010537 0.27892178 -0.23829304 0.23345116 -0.2992544 -0.6933534
-0.23539926 -0.068412334 -0.2518019 0.5423989 0.35424215 0.6566057 -0.39042166 -0.32932046
0.07525781 0.56366163 0.8101956 0.66864944 -0.1771481 -0.4894664 -0.69226795 -0.74789137
-0.83364666 -0.5676447 -0.027571458 0.32876977 0.29024312 0.16021407 0.6041346 0.34412792
-0.7828375 0.27036297 0.4548495 -0.8645745 0.49591836 0.41421574 -0.45188496 0.41193557
0.06428903 -0.9823122 0.5525857 0.71035045 -0.063700594 1.3651366 -0.32923135 0.7054757
0.3896515 -1.0840749 0.9779252 0.6949185 0.7079533 -0.27264768 0.44614843 -0.19470058
-1.0655953 -1.146334 -0.21023747 0.12227419 0.019129584 -0.014052213 -0.2166907 -0.15344103
-0.31891134 -0.26896337 -0.26252475 0.163076 0.68581545 0.70896876 -0.27451727 0.47360057
-0.481478 -0.4891875 -0.338306 -0.5266823 -0.22019747 0.44491312 -0.0054439935 -0.53922635
0.7068429 -0.4499194 -0.3343359 0.4053888 -0.05586386 -0.2822611 0.018118033 -0.041980855
-0.18601091 -0.20584303 0.18949626 -0.21068908 -0.14953573 0.08400939 -0.022106268 -0.46236575
0.31315967 -0.010911139 -0.4593845 0.288331 0.0899279 -0.41230276 0.31662992 -0.08396498
-0.05598519 0.5978778 0.41054884 -0.21845616 0.08353097 0.7006356 -0.7612956 -0.6882883
-0.1487599 -0.16707249 0.2629459 -0.22903955 0.24905433 0.40682054 -0.14296018 -0.043551188
0.128555 0.060366344 -0.3267432 -0.25541198 -0.17559916 0.42808884 -0.26215637 -0.53750515
-0.026349284 0.50086325 0.6912662 0.28158668 -0.03290895 -0.23878257 0.052883193 0.22302969
-0.16801193 -0.32678264 -0.058673594 -0.2224977 -0.60271114 -0.5932542 0.086089686 -0.53044295
00000000: 2995 813e 4823 7fbd 29bf 88bf f242 553e
00000010: a8de a43f d117 b33e 4654 4bbf 761d 693e
00000020: 0f29 a93e c47b 31bf 8cf4 a83e 7f61 8b3e
00000030: a292 edbe 6ea8 b13e 5bd4 d53e 21c9 b0be
00000040: 0271 f13e 92a4 b63e fda5 c6be 6de7 76be
00000050: a874 debd 3ba9 efbe 3ebc b2be 3a8e 3c3e
00000060: 25c2 51be bd01 ea3e 587c 153f 721f 79be
00000070: fb16 b4be 1120 babd 79ad e43d 9273 803e
00000080: 2569 63bb d31e 41be abc0 293e 5da1 b83e
00000090: affa 7f3e 8fc2 f23e d277 0fbe 1372 803e
000000a0: 0486 273d 66fa 2cbf 6380 133f 7fe5 00be
000000b0: a1f0 3abd f1a9 1a3e c184 30bf fffe a7be
000000c0: ea83 013f 7127 0ebf 8048 56bf 1fba 6a3f
000000d0: 8147 5f3f 62b1 573e c7ad 6fbe a885 2bbf
000000e0: 1543 aebe 27be 00bf fce9 793c 9c9a 423f
000000f0: 9ebc 313f 81d3 1d3f 1232 7bbe 5d0f 523e
00000100: d5a2 fcbe 679d 6abe 94f1 ba3e 2b8d a8be
00000110: f2f9 f73d 1abc b53e 5bde 16bd b4a7 463e
00000120: a065 ce3e ed29 9cbe 6128 79bf e58d 8e3e
00000130: ee98 2d3f f1a4 883d 3a1f eabd 5fd5 c73e
00000140: bef3 a83e 9292 26be 01ef 4d3e 6c98 d3be
00000150: 4130 a43e 6042 3f3e df02 6abf 485f 293f
00000160: f04b 173f f3c2 04bf f009 89bc c0f3 303e
00000170: a366 9b3b 8676 20bd 0734 5dbe b262 8a3e
00000180: 0057 a0be 9665 9d3e f3d6 6639 4049 213e
00000190: ffc7 bebe e735 2fbe ed3a 0abf 0d6a 25be
000001a0: d5f6 abbe c279 e5bd 3f89 973d 6bcd ed3c
000001b0: c5ed 91be 6535 68be 39d9 7abc 5ef7 b8be
000001c0: 686e ecbe 4d78 c2be 5fd0 f53e d6ce 8e3e
000001d0: 1703 74be d20d 6f3e df37 99be 9c7f 31bf
000001e0: 810c 71be c41b 8cbd 2eec 80be a8da 0a3f
000001f0: 3a5f b53e 5017 283f 59e5 c7be b19c a8be
00000200: c420 9a3d 214c 103f fb68 4f3f 9c2c 2b3f
00000210: 5066 35be 579b fabe 7938 31bf cf75 3fbf
00000220: de69 55bf 2a51 11bf 8add e1bc 8354 a83e
00000230: bf9a 943e 280f 243e 91a8 1a3f 8931 b03e
00000240: 0a68 48bf 046d 8a3e 09e2 e83e c154 5dbf
00000250: 03e9 fd3e 1614 d43e 775d e7be 38e9 d23e
00000260: f8a9 833d d078 7bbf 4276 0d3f 87d9 353f
00000270: 7575 82bd ccbc ae3f 0391 a8be 0e9a 343f
00000280: 6780 c73e f7c2 8abf 4e59 7a3f 2ee6 313f
00000290: 6d3c 353f 7a98 8bbe 916d e43e 975f 47be
000002a0: 6d65 88bf 13bb 92bf 7e48 57be e46a fa3d
000002b0: a5b5 9c3c 413b 66bc 2be4 5dbe a51f 1dbe
000002c0: 5948 a3be 91b5 89be a569 86be 65fd 263e
000002d0: 9a91 2f3f fa7e 353f 878d 8cbe c67b f23e
000002e0: 4984 f6be c976 fabe 7236 adbe a7d4 06bf
000002f0: 727b 61be a7cb e33e 8763 b2bb bd0a 0abf
00000300: a8f3 343f d65b e6be 132e abbe 1f8f cf3e
00000310: 81d1 64bd 8784 90be 456c 943c 1ef4 2bbd
00000320: a579 3ebe 84c8 52be 4f0b 423e e1be 57be
00000330: e51f 19be 1d0d ac3d 3418 b5bc 34bb ecbe
00000340: 7756 a03e a2c4 32bc 7234 ebbe 1fa0 933e
00000350: 1e2c b83d 5919 d3be 511d a23e d5f5 abbd
00000360: ba50 65bd 850e 193f 7533 d23e f9b2 5fbe
00000370: 4912 ab3d db5c 333f 45e4 42bf a933 30bf
00000380: 8454 18be 0d15 2bbe d8a0 863e 5889 6abe
00000390: 1908 7f3e c84a d03e 2764 12be bb62 32bd
000003a0: eca3 033e b342 773d e24a a7be 5cc5 82be
000003b0: 44d0 33be 762e db3e 5c39 86be f099 09bf
000003c0: 74da d7bc 9338 003f d2f6 303f 212c 903e
000003d0: 89cb 06bd 6b83 74be 0c9c 583d e561 643e
000003e0: 520b 2cbe 0e50 a7be b953 70bd 70d6 63be
000003f0: 474b 1abf 82df 17bf ca4f b03d 1ccb 07bf

bias f4 [32]
-0.07672382 -0.0325127 0.26651838 -0.12782764 -0.1637827 -0.11072317 0.005573662 -0.012747404
-0.16984405 0.013430293 -0.2730205 0.9980219 0.39541057 -0.029044986 -0.019944724 0.21220383
-0.0074856696 -0.5465044 -0.0019207514 -0.13173015 0.2530175 -0.00061080896 -0.09399652 0.33979288
-0.025034092 -0.10037218 -0.001000921 -0.12274179 -0.138972 -0.20554489 -0.19656122 0.07373808
00000000: 6121 9dbd 092c 05bd 1975 883e 40e5 02be
00000010: a7b6 27be d4c2 e2bd 44a3 b63b 7dda 50bc
00000020: 99eb 2dbe bb0a 5c3c 58c9 8bbe 5d7e 7f3f
00000030: 4173 ca3e c0ef edbc 1e63 a3bc f64b 593e
00000040: 594a f5bb b6e7 0bbf b9c1 fbba 45e4 06be
00000050: 828b 813e b21e 20ba 3f81 c0bd 55f9 ad3e
00000060: 4c14 cdbc ee8f cdbd 5631 83ba 0c60 fbbd
00000070: ad4e 0ebe 5c7a 52be 5847 49be fe03 973d

weight f4 [64, 32, 3, 3]
-0.024597317 0.048729524 -0.024544902 0.042135846 -0.0481078 -0.052502967 -5.2860923e-07 0.021113994
0.021405326 -0.04801105 -0.019483486 0.03397962 -0.05923175 0.008290384 -0.011267462 0.011512214
0.0069926064 -0.05827412 0.02883094 -0.03870055 -0.016612705 -0.022850271 -0.030943263 0.05074151
-0.034149807 0.047158327 -0.005208445 0.051608797 -0.011702529 -0.0035953394 0.057347193 -0.05037116
0.031529225 -0.019106625 -0.04830559 0.043862354 0.0315427 -0.033438753 -0.042504508 -0.046872508
0.016411213 -0.044010025 -0.009090561 -0.014725504 0.022954086 0.057682678 -0.044251703 -0.047590025
0.032890376 0.046809632 0.040242344 0.049586166 0.021017775 -0.013398794 -0.027808998 -0.0026002163
0.040662844 -0.018150106 -0.06766064 -0.0067876047 -0.0126319 0.055861887 -0.024608023 -0.021387395
0.025692062 0.045056537 -0.024869755 0.055522453 0.044209614 0.018819239 -0.007325165 -0.012488824
0.036166176 0.0014627842 -0.012131989 -0.0624094 0.023995483 0.024505146 0.00011705579 -0.012769219
-0.0035141069 -0.017728347 0.0013284435 -0.0075399294 0.01939563 -0.03569144 -0.040928666 0.023372276
0.0044310205 0.052654672 0.018381493 0.04070918 -0.03610129 -0.00736467 -0.039524972 -0.056156423
-0.001940356 -0.03602573 0.023384815 0.037731893 -0.034175325 0.009421896 -0.03318009 0.04179374
-0.04351654 0.040467832 -0.014251675 -0.05125151 0.040649027 -0.02545074 -0.04621867 -0.041561265
-0.050429035 0.010799763 0.02634971 0.05049746 -0.048766006 0.0048827343 -0.051017873 -0.025410958
-0.018595774 -0.027814655 0.0062200017 -0.028222848 0.0011539194 0.010862488 0.050603613 -0.012048588
-0.006924655 -0.03446257 -0.039545257 0.05014935 0.052488483 0.02469443 -0.05235131 -0.040582933
-0.032427564 0.047993544 -0.018850664 -0.05181571 -0.046234373 -0.02856892 -0.017075352 0.049519252
-0.030796016 0.006973601 -0.038549393 -0.002920172 -0.05476912 -0.031094508 0.0011569498 -0.029984666
0.018654894 0.030009037 -0.04879643 -0.06323014 0.018212304 -0.059270915 -0.048533235 -0.011423718
-0.037490137 0.044916514 0.01770748 0.008699735 0.006102325 -0.05907435 0.027631342 -0.011239527
-0.05044925 0.019780165 0.03433834 0.03765909 0.05323912 -0.024940722 -0.044382848 -0.019393114
-0.05253783 0.04415951 0.010907551 0.026417231 -0.028259045 0.012672993 -0.05968152 -0.030035129
-0.016459303 -0.029425139 -0.05244422 -0.040409215 -0.044037312 -0.036377084 0.04457748 -0.04060693
0.050878953 0.025475422 -0.022339784 -0.01571853 0.03704348 -0.053913232 0.040351935 0.014611703
0.0206484 0.012019383 0.054492302 0.021425763 -0.026508914 0.04528908 -0.01326725 -0.02632479
-0.044480186 -0.032675076 -0.028115582 -0.019759556 -0.024747927 -0.05788499 -0.0057808748 0.0063709957
-0.05983854 -0.01579708 -0.00902359 -0.014587273 -0.0049398653 0.021649793 0.044319607 0.008199379
-0.03184112 -0.054632165 0.031236676 0.0358622 0.05439197 -0.018751174 0.013719166 0.055251278
-0.05056439 0.06391909 -0.05054016 -0.039044347 0.027099112 0.043629635 -0.04474365 0.020050593
0.055876084 0.052646715 -0.0073418096 0.0022859895 0.006143417 -0.027840408 -0.00800715 -0.02432886
0.015224928 0.021804025 0.034209553 -0.050940264 0.029890675 -0.053609945 0.04469377 0.033982225
00000000: 5080 c9bc 9c98 473d 6412 c9bc a396 2c3d
00000010: af0c 45bd 5a0d 57bd c0e5 0db5 41f7 ac3c
00000020: 395a af3c 3ca7 44bd d59b 9fbc 372e 0b3d
00000030: fe9c 72bd 64d4 073c 299b 38bc ba9d 3c3c
00000040: 3c22 e53b d8b0 6ebd dd2e ec3c 7884 1ebd
00000050: 5e17 88bc 7e30 bbbc ba7c fdbc 54d6 4f3d
00000060: abe0 0bbd 1729 413d 9aab aabb bf63 533d
00000070: f7bb 3fbc c99f 6bbb e4e4 6a3d fd51 4ebd
00000080: ca24 013d 7f85 9cbc 15dc 45bd 03a9 333d
00000090: eb32 013d 13f7 08bd 3519 2ebd 63fd 3fbd
000000a0: cf70 863c db43 34bd 94f0 14bc 3e43 71bc
000000b0: 350a bc3c ac44 6c3d 4641 35bd c2ed 42bd
000000c0: 0fb8 063d 75bb 3f3d 28d5 243d dd1a 4b3d
000000d0: 782d ac3c 9e86 5bbc b2cf e3bc 6468 2abb
000000e0: 158e 263d 88af 94bc a991 8abd 8e6a debb
000000f0: 07f6 4ebc 6fcf 643d c496 c9bc 9e34 afbc
00000100: 2978 d23c 348d 383d a8bb cbbc 836b 633d
00000110: 2415 353d ce2a 9a3c f007 f0bb ed9d 4cbc
00000120: fc22 143d e5ba bf3a 40c5 46bc 00a1 7fbd
00000130: 2d92 c43c 04bf c83c d97b f538 fd35 51bc
00000140: ee4c 66bb 0a3b 91bc 2b1f ae3a 8311 f7bb
00000150: 96e3 9e3c 3031 12bd d1a4 27bd 3777 bf3c
00000160: 1832 913b 6dac 573d c994 963c abbe 263d
00000170: f2de 13bd 5453 f1bb f0e4 21bd 4704 66bd
00000180: 8b53 feba b78f 13bd 8391 bf3c c28c 1a3d
00000190: 6dfb 0bbd 4c5e 1a3c d9e7 07bd ea2f 2b3d
000001a0: 663e 32bd 99c1 253d dc7f 69bc 1aed 51bd
000001b0: 987f 263d 127e d0bc ca4f 3dbd 253c 2abd
000001c0: ad8e 4ebd 7df1 303c 59db d73c 6dd6 4e3d
000001d0: ddbe 47bd 58ff 9f3b 1ef8 50bd a42a d0bc
000001e0: 2a56 98bc 8fdb e3bc 28d1 cb3b 9a33 e7bc
000001f0: 1c3f 973a 94f8 313c bc45 4f3d 7167 45bc
00000200: 37e8 e2bb a028 0dbd 35fa 21bd 6869 4d3d
00000210: 2afe 563d f94b ca3c 546e 56bd 4a3a 26bd
00000220: c4d2 04bd e194 443d b56c 9abc b63c 54bd
00000230: 4160 3dbd 5e09 eabc 9ce1 8bbc b3d4 4a3d
00000240: ed47 fcbc ce82 e43b f8e5 1dbd 5b60 3fbb
00000250: 9655 60bd e9b9 febc cba4 973a 67a2 f5bc
00000260: 26d2 983c 83d5 f53c c4de 47bd ce7e 81bd
00000270: f831 953c 0fc6 72bd c9ca 46bd 8c2a 3bbc
00000280: 428f 19bd 61fa 373d 470f 913c 5589 0e3c
00000290: 03f6 c73b f2f7 71bd 205b e23c fe25 38bc
000002a0: dfa3 4ebd 030a a23c 5ca6 0c3d 6b40 1a3d
000002b0: 4311 5a3d 7c50 ccbc caca 35bd 4fde 9ebc
000002c0: e831 57bd 9ae0 343d 96b5 323c f368 d83c
000002d0: 837f e7bc 63a2 4f3c 9c74 74bd 3b0c f6bc
000002e0: a9d5 86bc fd0c f1bc c0cf 56bd 2284 25bd
000002f0: 7860 34bd 2300 15bd e096 363d 7453 26bd
00000300: 7366 503d d5b1 d03c ec01 b7bc 26c4 80bc
00000310: e7ba 173d 1fd4 5cbd 1248 253d ed65 6f3c
00000320: d526 a93c f2ec 443c 5233 5f3d 1585 af3c
00000330: 3929 d9bc 0b81 393d e15e 59bc 16a7 d7bc
00000340: db30 36bd 4dd6 05bd a652 e6bc cbde a1bc
00000350: 2abc cabc d018 6dbd 7e6d bdbb c9c3 d03b
00000360: 4219 75bd e168 81bc aed7 13bc 75ff 6ebc
00000370: 98de a1bb e85a b13c 7a88 353d b056 063c
00000380: d66b 02bd fac5 5fbd 0fe4 ff3c 3ee4 123d
00000390: 1dca 5e3d 109c 99bc 5ac6 603c 2a4f 623d
000003a0: 9b1c 4fbd 03e8 823d 3303 4fbd f7ec 1fbd
000003b0: f5fe dd3c fdb4 323d 1e45 37bd 2441 a43c
000003c0: 52de 643d 15a4 573d 9093 f0bb 8ad0 153b
000003d0: b84e c93b 9111 e4bc 6c30 03bc 514d c7bc
000003e0: fa71 793c 5b9e b23c 511f 0c3d bda6 50bd
000003f0: 4add f43c 1a96 5bbd d110 373d f230 0b3d

bias f4 [64]
0.03471364 0.020787476 0.03727669 -0.0602911 -0.027984431 -0.087559894 -0.10814783 -0.12666652
-0.03223874 -0.18631609 0.01252443 -0.012050599 0.024052963 -0.021659607 -0.04919272 -0.0762196
-0.14681873 0.026507525 -0.043225467 -0.030753667 -0.11778422 -0.040764373 0.0007924181 -0.036004167
-0.0927279 -0.050843753 -0.107782125 -0.037449244 -0.10643544 -0.017380312 0.02082542 -0.15688933
-0.14144589 -0.19089566 0.010870531 -0.018533539 -0.06264928 0.023042053 0.019632619 -0.017311957
-0.020350127 -0.13669156 -0.13662004 -0.042690277 -0.0651034 -0.0012645294 0.04475757 -0.01819188
-0.0052158823 -0.069255166 -0.017928388 -0.09659873 -0.105480365 -0.13743077 -0.064012736 -0.04083215
-0.028682968 -0.07643335 0.003071456 -0.064842835 -0.012193936 -0.08754398 -0.0082071 0.050611265
00000000: e42f 0e3d 7f4a aa3c 71af 183d cdf3 76bd
00000010: 9b3f e5bc 9a52 b3bd 9c7c ddbd deb4 01be
00000020: c50c 04bd a5c9 3ebe 4433 4d3c e06f 45bc
00000030: b80a c53c 7d6f b1bc 4e7e 49bd 0619 9cbd
00000040: a657 16be 4f26 d93c 300d 31bd 1def fbbc
00000050: da38 f1bd 8bf8 26bd 47ba 4f3a 1b79 13bd
00000060: 20e8 bdbd 8a41 50bd e0bc dcbd 6164 19bd
00000070: d3fa d9bd 2861 8ebc 129a aa3c 99a7 20be
00000080: 31d7 10be 277a 43be 501a 323c a6d3 97bc
00000090: 444e 80bd b0c2 bc3c 96d4 a03c ced1 8dbc
000000a0: 4fb5 a6bc dff8 0bbe 20e6 0bbe 00dc 2ebd
000000b0: ee54 85bd 91be a5ba b753 373d 2307 95bc
000000c0: fee9 aabb a7d5 8dbd 8ede 92bc 8ed5 c5bd
000000d0: 1706 d8bd a7ba 0cbe 1c19 83bd 9d3f 27bd
000000e0: 8bf8 eabc 1789 9cbd 7b4a 493b 52cc 84bd
000000f0: 13c9 47bc 424a b3bd 1377 06bc c24d 4f3d

weight f4 [64, 2880]
-0.014915382 -0.007125754 0.016205993 -0.0010979172 -0.010531757 0.0047139684 -0.0067905076 -0.01050615
-0.005041446 0.006574371 -0.012518533 -0.016601818 -0.0034723873 0.012106069 0.0073582768 0.005037714
0.018831346 -0.0024852639 0.0006854753 0.014203128 -0.007598351 -0.0057773935 0.003913082 -0.01064769
0.005026664 -0.0126661835 0.0036782897 0.0010550333 0.009602261 -0.019235352 -0.014131059 -0.0016463532
0.0024908066 0.01575982 -0.008946309 0.003433033 -0.024271632 0.008570034 0.013991386 0.013555645
-0.013048548 -0.0019397376 -0.0015841872 -0.0037910165 0.006904292 0.009337341 -0.008803184 0.014559463
0.013335332 -0.014740791 -0.0069546737 0.00041522566 0.016967433 -0.01402776 0.0066132247 -0.010097232
-0.011514045 0.017844578 0.003891361 -0.004018089 -0.005870215 -0.009120187 -0.014398113 0.00051645975
-0.006631905 -0.011483749 0.00029150705 -0.014222189 -0.010554432 -0.020480212 0.013160473 -0.011542299
0.006031755 -0.0066815703 -0.00860424 -0.015423171 0.008903774 0.003950765 -0.013800861 0.013181381
0.011154905 -0.022047425 0.0007887003 -0.0025435751 0.0229528 0.004365762 0.016474945 0.034002796
0.014997224 -0.014919784 0.0072878324 -0.016547518 -0.0067243874 0.016334 0.0043678135 0.024340112
0.0026048676 -0.027091177 0.031288713 0.0139341075 0.01733097 -0.0042985836 0.0020346001 0.007009824
0.00015341937 -0.013956583 -0.00900599 0.00986683 0.012276804 -0.013978681 -0.012517032 -0.012950691
-0.0036410505 0.000117306794 0.0019143809 -0.006157785 -0.007381797 -0.039868355 -0.009880917 -0.00023399568
-0.0017398896 0.012883661 0.016145477 0.03907365 0.007899278 -0.0012244453 0.012875241 0.031134073
0.030478306 -0.028642505 0.00011685505 0.011387877 0.0062586428 -0.021284211 -0.02629306 0.014902981
0.012706875 0.007448553 0.019831339 -0.030420534 -0.017847147 0.0022630268 -0.03296535 0.019159088
0.019017145 0.019059267 0.03753388 0.026183115 -0.025353255 0.025368871 0.012736391 -0.0040416764
0.036300324 0.034000758 -0.009728695 0.021257509 -0.024086844 0.009060321 0.00012220006 -0.03683825
-0.008559417 -0.103212945 -0.120482266 -0.056779094 0.015857175 0.010364165 0.012571168 0.057629794
-0.020914404 0.032731786 -0.033169787 -0.057833765 -0.061490037 -0.019808842 -0.004790167 -0.013098526
0.0008552537 0.0214925 0.009257206 0.0061827684 0.012485776 0.022537293 0.010866079 -0.007845492
-0.007938518 0.009039374 -0.009474493 0.018794635 0.0047838455 0.018014807 -0.013141309 0.022364864
0.0011171632 0.00068681774 -0.014629452 -0.011585023 0.018791333 -0.003763011 0.05353132 0.050152194
-0.010901114 -0.013530406 0.000958931 0.024106313 0.05613741 0.013346797 0.0231229 0.014596241
-0.041822232 0.03686669 0.026479611 -0.03129291 -0.06404104 0.018040955 0.02673826 -0.0017929255
-0.04390863 0.0010677109 0.08602651 0.02906137 -0.0054400717 0.03645756 0.015908003 0.08119587
0.0043897787 -0.016442344 0.041074883 -0.04341238 0.0030633328 0.011485961 -0.035833955 0.031645805
-0.028297823 0.050948158 -0.003732108 0.009426578 0.043522883 0.012627694 -0.03674554 -0.040510613
-0.0060127773 -0.017266553 0.018750535 0.012625924 -0.011034247 -0.026909482 0.017153334 -0.046948384
0.00094233017 -0.0017587333 -0.0015745286 -0.070286356 -0.048832268 -0.012280553 -0.041337464 0.019699685
00000000: a55f 74bc 287f e9bb 6ec2 843c fde7 8fba
00000010: 648d 2cbc a277 9a3b e882 debb fd21 2cbc
00000020: b732 a5bb d26d d73b 881a 4dbc 8900 88bc
00000030: fe90 63bb 8958 463c b31d f13b 6813 a53b
00000040: 3244 9a3c cfdf 22bb 78b1 333a 3db4 683c
00000050: 97fb f8bb 4a50 bdbb 5039 803b a673 2ebc
00000060: b7b6 a43b d385 4fbc 760f 713b 0b49 8a3a
00000070: cd52 1d3c 7593 9dbc f585 67bc 72ca d7ba
00000080: cd3c 233b bd1a 813c 8a93 12bc bcfc 603b
00000090: 4dd5 c6bc 5469 0c3c 203c 653c 7f18 5e3c
000000a0: 94c9 55bc cb3e feba 80a4 cfba b472 78bb
000000b0: 663d e23b a6fb 183c 3b3b 10bc d08a 6e3c
000000c0: 707c 5a3c 5c83 71bc 08e4 e3bb a5b2 d939
000000d0: 49ff 8a3c b1d4 65bc c0b3 d83b dc6e 25bc
000000e0: 68a5 3cbc cb2e 923c 3406 7f3b 2caa 83bb
000000f0: ef5a c0bb d66c 15bc 10e6 6bbc 0763 073a
00000100: 7450 d9bb 5626 3cbc 6ad5 9839 2f04 69bc
00000110: 7fec 2cbc 1ec6 a7bc 069f 573c e91b 3dbc
00000120: 07a6 c53b 13f1 dabb ccf8 0cbc 78b1 7cbc
00000130: 23e1 113c 6b75 813b 021d 62bc b8f6 573c
00000140: 10c3 363c cd9c b4bc c8c0 4e3a 1cb2 26bb
00000150: 8307 bc3c ab0e 8f3b 77f6 863c 8446 0b3d
00000160: ebb6 753c 1c72 74bc c5ce ee3b a98e 87bc
00000170: 4058 dcbb e1ce 853c e01f 8f3b ea64 c73c
00000180: 6db6 2a3b 51ee ddbc 9828 003d e24b 643c
00000190: aef9 8d3c 22db 8cbb ed56 053b aab2 e53b
000001a0: 33df 2039 27aa 64bc dc8d 13bc 7ca8 213c
000001b0: a624 493c d606 65bc 3d14 4dbc 232f 54bc
000001c0: b19e 6ebb 9b02 f638 f7eb fa3a 3fc7 c9bb
000001d0: 00e3 f1bb 004d 23bd 92e3 21bc bd5c 75b9
000001e0: 020d e4ba fe15 533c 8543 843c b10b 203d
000001f0: f96b 013c 917d a0ba adf2 523c e20c ff3c
00000200: a4ad f93c b0a3 eabc 1410 f538 3894 3a3c
00000210: 4d15 cd3b 3a5c aebc 8b64 d7bc a22b 743c
00000220: 7f30 503c fe12 f43b 5575 a23c 7c34 f9bc
00000230: 2e34 92bc 4a4f 143b ad06 07bd 85f3 9c3c
00000240: d8c9 9b3c 2e22 9c3c 20bd 193d f97d d63c
00000250: a1b1 cfbc 61d2 cf3c 4cac 503c 0a70 84bb
00000260: a6af 143d 6144 0b3d 1b65 1fbc 3a24 ae3c
00000270: c651 c5bc be71 143c d422 0039 b4e3 16bd
00000280: cc3c 0cbc 4f61 d3bd 68bf f6bd 3291 68bd
00000290: e8e6 813c 75ce 293c 4df7 4d3c 380d 6c3d
000002a0: af54 abbc c411 063d 0bdd 07bd 19e3 6cbd
000002b0: fadc 7bbd 2746 a2bc d5f6 9cbb 339b 56bc
000002c0: 1b33 603a 0a11 b03c 89ab 173c d298 ca3b
000002d0: 2491 4c3c 21a0 b83c a307 323c 618a 00bc
000002e0: 8f10 02bc e219 143c e73a 1bbc 35f7 993c
000002f0: cec1 9c3b ca93 933c a54e 57bc 8536 b73c
00000300: c76d 923a 8f0b 343a 5eb0 6fbc 1ccf 3dbc
00000310: 48f0 993c d99c 76bb a843 5b3d 636c 4d3d
00000320: 969a 32bc a3ae 5dbc c560 7b3a 9a7a c53c
00000330: 57f0 653d 86ac 5a3c 3c6c bd3c 1225 6f3c
00000340: ca4d 2bbd 8701 173d c5eb d83c ff2c 00bd
00000350: f327 83bd a0ca 933c 320a db3c 9900 ebba
00000360: 89d9 33bd 6ff2 8b3a ab2e b03d 1c12 ee3c
00000370: a142 b2bb 8654 153d 8051 823c 054a a63d
00000380: 22d8 8f3b 18b2 86bc 233e 283d 2ed1 31bd
00000390: 32c2 483b 9d2f 3c3c a0c6 12bd 089f 013d
000003a0: d6d0 e7bc 04af 503d 6296 74bb ef71 1a3c
000003b0: 0d45 323d 63e4 4e3c 7e82 16bd 75ee 25bd
000003c0: d506 c5bb 9672 8dbc b99a 993c f7dc 4e3c
000003d0: fdc8 34bc 4671 dcbc 2685 8c3c f34c 40bd
000003e0: b506 773a 4c85 e6ba 6a60 ceba 4bf2 8fbd
000003f0: 5804 48bd 5f34 49bc 7951 29bd 3c61 a13c

bias f4 [64]
0.004586315 0.005238359 -0.04865779 0.04513106 -0.026149377 -0.0077792807 -0.005500578 0.03686872
-0.013150259 0.026359867 -0.019800298 0.004866998 0.006119201 0.021490019 0.05537755 -0.003215723
0.0032648796 0.00054437213 0.008065848 0.016826797 0.015565248 -0.020534255 -0.03174853 0.009803892
-0.0121474555 0.012401343 0.010088543 -0.021551117 0.042391237 -0.018197274 0.0027471476 -0.03393229
0.004592539 -0.0058233743 -0.014179614 -0.025537234 -0.0435367 0.008521106 -0.029172229 0.037787016
-0.016413415 -0.03938612 -0.014822632 0.015988916 0.0003607253 -0.0190056 -0.010777666 -0.015044351
-0.008526206 -0.02388691 -0.03369763 -0.014366181 0.027651453 0.034078594 -0.005435346 -0.032341916
0.015428238 0.011683362 0.0065096077 -0.03800591 0.0055024107 0.015432438 -0.005988357 -0.00117767
00000000: cc48 963b 8aa6 ab3b 644d 47bd 59db 383d
00000010: 3837 d6bc 56e9 febb 313e b4bb a803 173d
00000020: 2f74 57bc a6f0 d73c 3c34 a2bc 577b 9f3b
00000030: 9483 c83b d60b b03c 92d3 623d e1be 52bb
00000040: 97f7 553b 32b4 0e3a 9e26 043c 5ad8 893c
00000050: 6205 7f3c 7437 a8bc bf0a 02bd 81a0 203c
00000060: 1f06 47bc 012f 4b3c 6b4a 253c f88b b0bc
00000070: 6fa2 2d3d 7312 95bc 7d09 343b 96fc 0abd
00000080: 027d 963b 01d2 bebb 9d51 68bc 7633 d1bc
00000090: 8a53 32bd 1c9c 0b3c 99fa eebc 8fc6 1a3d
000000a0: 6d75 86bc 5753 21bd a0da 72bc 30fb 823c
000000b0: bb1f bd39 a2b1 9bbc cf94 30bc 957c 76bc
000000c0: 80b1 0bbc 7bae c3bc 8706 0abd 2160 6bbc
000000d0: 4d85 e23c ff95 0b3d fd1a b2bb f578 04bd
000000e0: b8c6 7c3c 926b 3f3c 8c4e d53b 16ac 1bbd
000000f0: 914d b43b 56d8 7c3c fb39 c4bb 0c5c 9aba

weight f4 [20, 64]
0.0040321313 -0.044117816 -0.28269026 0.33989418 0.0339979 0.1489683 -0.46837655 0.26250875
0.33614063 0.30165243 0.3058473 -0.020992301 0.07195112 -0.34673417 0.5077771 -0.010028882
-0.014961539 -0.3741632 0.1560508 0.016711852 -0.33317626 0.014496467 -0.2908787 -0.2839868
-0.004184557 0.0021680156 0.56498903 -0.4274831 -0.038024202 0.30251747 -0.38985547 -0.4050237
0.0151868025 0.3049169 -0.0067032925 8.658181e-05 0.016592352 -0.4561484 0.0243678 -0.28953588
0.011478389 0.032005146 0.21523482 -0.47705126 0.014221813 -0.45948178 0.05604175 0.30326664
0.036465153 0.020629056 -0.001829508 -0.04725739 -0.03391722 0.18790142 -0.014121322 0.36673102
0.0030964601 0.02785657 -0.043819394 -0.0877338 -0.33630013 0.38079768 0.035867684 -0.009835062
0.03410025 0.034780525 -0.2564192 0.39862698 0.054161422 -0.34292227 -0.2512816 0.056295436
-0.36509803 0.48367262 -0.1544623 0.04080401 0.24492727 0.37275222 0.4742661 -0.02021465
-0.00084073434 0.42870313 0.2871873 0.026074871 0.39416352 -0.040996518 -0.40765518 0.41022757
-0.0018569462 0.022574127 -0.33204314 -0.35324967 -0.042856306 -0.3218425 0.29279706 -0.42201358
0.03882764 -0.4035995 -0.00093305745 -0.038025457 -0.008867897 0.4265979 0.026462255 0.22948186
0.024763381 -0.021159094 -0.37265015 0.2223595 0.00065637566 0.32976058 -0.0059875464 -0.3413613
0.015942343 -0.08916379 0.0040156906 0.010025913 0.0016527247 -0.16183032 -0.028563421 -0.31888252
0.018678112 0.030484656 0.0028184678 -0.2995004 0.014739093 -0.3368618 0.0032865603 -0.0004930716
0.016685564 -0.001982938 -0.27015376 0.38471842 -0.0034816128 -0.28515226 -0.42449316 0.2620202
-0.37901518 -0.2918276 -0.41708046 0.0070866393 0.19851382 -0.21801099 -0.34888288 -0.030415215
0.028897416 -0.3940723 0.2703305 -0.02519172 -0.26396066 0.019345226 0.36718884 -0.33200887
0.019477969 0.0017815459 -0.3347691 0.39435676 -0.012869421 0.4411415 -0.37169212 -0.36519787
0.03484851 -0.117010206 -0.04868899 -0.02958647 -0.054064874 0.42810366 -0.04570542 0.27715066
0.0064863972 0.029009419 0.22516404 0.32323208 0.005471918 -0.37836662 -0.04307386 0.32411373
0.018302556 0.0025708242 0.02044465 -0.019833105 -0.0025426873 -0.09349808 -0.006155464 -0.16452287
-0.018551145 0.014441568 0.004497797 -0.36454457 -0.15416205 -0.35776335 0.019517004 -0.010064248
0.0043882905 0.020214714 0.3641212 0.3178558 0.029919242 0.2560804 0.33600262 -0.17503363
0.30830738 -0.30027592 0.31164366 0.022004995 -0.1112027 0.36488453 -0.32678717 -0.0028316763
0.047183085 -0.42048982 0.24642321 0.0332221 -0.20809157 0.0022210483 -0.32905826 -0.3081936
-0.0040061073 0.007886315 -0.3425011 0.40855682 -0.0013505835 0.41116223 -0.38875848 0.37865874
0.006784747 -0.33908224 0.0040427973 -0.06308165 0.0074540875 0.44504234 0.05453392 -0.33153853
0.023743834 -0.001129009 0.26583344 0.33925948 0.028572615 0.23303606 -0.0393923 -0.095972955
0.0075267996 -0.04879549 -0.001994469 0.03160808 -0.010877272 -0.25791234 -0.04483977 0.22518158
-0.034711722 -0.0038431352 0.04391002 -0.15129928 0.3338838 -0.35741875 -0.009668588 -0.015040934
00000000: f81f 843b e2b4 34bd c7bc 90be 9c06 ae3e
00000010: 6241 0b3d 258b 183e 0dcf efbe 8c67 863e
00000020: a01a ac3e 3072 9a3e 0498 9c3e 0cf8 abbc
00000030: 1c5b 933d 2487 b1be aefd 013f 2e50 24bc
00000040: 3e21 75bc 5292 bfbe c8cb 1f3e 4be7 883c
00000050: 1496 aabe 9782 6d3c 0eee 94be b866 91be
00000060: 9c1e 89bb 4415 0e3b 1fa3 103f 11df dabe
00000070: 44bf 1bbd 92e3 9a3e 239b c7be 445f cfbe
00000080: 11d2 783c 111e 9c3e 4ba7 dbbb 4193 b538
00000090: afec 873c 488c e9be fb9e c73c 0c3e 94be
000000a0: da0f 3c3c d417 033d 8466 5c3e 1040 f4be
000000b0: 9b02 693c 3241 ebbe 098c 653d c445 9b3e
000000c0: 7c5c 153d 44fe a83c 1acc efba f790 41bd
000000d0: c8ec 0abd 3b69 403e 1e5d 67bc 2bc4 bb3e
000000e0: fbed 4a3b 7633 e43c f77b 33bd c7ad b3bd
000000f0: 882f acbe eaf7 c23e fee9 123d 3d23 21bc
00000100: b4ac 0b3d 0676 0e3d 6149 83be d618 cc3e
00000110: 5ed8 5d3d 8293 afbe fba7 80be 0b96 663d
00000120: 21ee babe f0a3 f73e 5d2b 1ebe 1b22 273d
00000130: 37ce 7a3e 61d9 be3e 02d3 f23e 3299 a5bc
00000140: ba64 5cba fa7e db3e 370a 933e f89a d53c
00000150: cdcf c93e f7eb 27bd 2eb8 d0be 5909 d23e
00000160: c664 f3ba 60ed b83c 8f01 aabe 24dd b4be
00000170: 188a 2fbd 8ac8 a4be 7fe9 953e 2a12 d8be
00000180: bb09 1f3d 98a4 cebe 6d98 74ba 95c0 1bbd
00000190: a84a 11bc 0a6b da3e 5fc7 d83c 4bfd 6a3e
000001a0: 93dc ca3c d655 adbc 00cc bebe 35b2 633e
000001b0: a010 2c3a 61d6 a83e 2e33 c4bb e9c6 aebe
000001c0: 8499 823c 819b b6bd 0e96 833b ba43 243c
000001d0: 3da0 d83a d9b6 25be d6fd e9bc 9244 a3be
000001e0: d702 993c f5ba f93c 0bb6 383b 1e58 99be
000001f0: 3d7c 713c 2679 acbe 5563 573b 7a41 01ba
00000200: 2ab0 883c 2ef4 01bb 9851 8abe d0f9 c43e
00000210: c52b 64bb 7aff 91be 2b57 d9be 8327 863e
00000220: 470e c2be 6d6a 95be 928b d5be 0a37 e83b
00000230: 3547 4b3e 463e 5fbe c7a0 b2be 5429 f9bc
00000240: 46ba ec3c d8c3 c9be c268 8a3e de5e cebc
00000250: da25 87be e179 9e3c 2d00 bc3e 11fd a9be
00000260: 4390 9f3c c382 e93a db66 abbe 21e9 c93e
00000270: 44da 52bc 4cdd e13e 6e4e bebe 37fb babe
00000280: 50bd 0e3d 0ca3 efbd 1b6e 47bd 535f f2bc
00000290: 2173 5dbd 6730 db3e 9b35 3bbd b1e6 8d3e
000002a0: d88b d43b 29a5 ed3c 6791 663e ad7e a53e
000002b0: c64d b33b 45b9 c1be 376e 30bd 3cf2 a53e
000002c0: 3eef 953c 467b 283b 8a7b a73c 0979 a2bc
000002d0: 37a3 26bb ec7b bfbd c6b3 c9bb af78 28be
000002e0: 92f8 97bc 549c 6c3c 4262 933b 96a5 babe
000002f0: a8dc 1dbe c22c b7be 20e2 9f3c 84e4 24bc
00000300: a6cb 8f3b 5499 a53c 186e ba3e ffbd a23e
00000310: 3319 f53c f81c 833e 8908 ac3e 043c 33be
00000320: 77da 9d3e c4bd 99be c28f 9f3e d243 b43c
00000330: 3ebe e3bd 25d2 ba3e a650 a7be a593 39bb
00000340: 0d43 413d 714a d7be 5e56 7c3e e613 083d
00000350: f515 55be 028f 113b 537a a8be 8dcb 9dbe
00000360: aa45 83bb 9a35 013c 4e5c afbe 5c2e d13e
00000370: 1006 b1ba db83 d23e 5a0b c7be 8fdf c13e
00000380: 9552 de3b 309c adbe 7179 843b f430 81bd
00000390: 6b41 f43b 97dc e33e f65e 5f3d 6bbf a9be
000003a0: 6e82 c23c 41fb 93ba 521b 883e 6bb3 ad3e
000003b0: 1e11 ea3c 01a1 6e3e d259 21bd 788d c4bd
000003c0: 5fa3 f63b c8dd 47bd a3b5 02bb 7977 013d
000003d0: 9636 32bc 160d 84be e8a9 37bd 0096 663e
000003e0: e12d 0ebd 1cdd 7bbb feda 333d 33ee 1abe
000003f0: d1f2 aa3e 97ff b6be ff68 1ebc 406e 76bc

bias f4 [20]
0.14378566 0.13965179 0.04620617 -0.18664888 -0.046600513 0.065479726 -0.099112764 -0.0054366356
0.3191289 0.0025042451 -0.07157532 0.17606857 0.049784686 -0.03897729 -0.074076585 -0.050003048
-0.2565722 0.052308153 0.2633892 0.00186401
00000000: 8c3c 133e e100 0f3e ae42 3d3d e220 3fbe
00000010: 2ee0 3ebd 3c1a 863d a2fb cabd ce25 b2bb
00000020: dd64 a33e 431e 243b 1596 92bd 524b 343e
00000030: 07eb 4b3d a7a6 1fbd 77b5 97bd ffcf 4cbd
00000040: 6e5d 83be 1341 563d f3da 863e cc51 f43a
