mnist_model_fully_connected.pt (torch, 409551 bytes, 4 tensors)

weight f4 [128, 784]
0	0x3cf1dd72	0.029524539
1	0xbbd82330	-0.0065959916
2	0xbd0f5985	-0.03499748
3	0x3c28593c	0.010275181
4	0x3d07724d	0.03306799
5	0x3cfe56fe	0.03104734
6	0xbd1016e0	-0.035178065
7	0x3d03abd9	0.03214631
8	0x3c3195b8	0.010838918
9	0xbd06b2ff	-0.032885548
10	0x3d0c707f	0.034286972
11	0x3b01a650	0.0019782968
12	0x3ba06f63	0.004896091
13	0x3c61c81c	0.01378062
14	0x3c2febba	0.010737354
15	0xbcaed8ef	-0.021343676
16	0x3ca78680	0.020449877
17	0x3ccef478	0.025263056
18	0xbc96d14e	-0.018410351
19	0x3c8d6124	0.017258234
20	0xbbd017b0	-0.00635048
21	0xbcbdbc9e	-0.023161229
22	0xbc60f5ae	-0.01373045
23	0xbb8900c0	-0.0041809976
24	0xbca0f045	-0.01964582
25	0x3ca4752e	0.020075407
26	0x3cac4dde	0.021033224
27	0xbc8aa7aa	-0.016925652
28	0xbcb59ef0	-0.022170514
29	0x36d5a000	6.366521e-06
30	0x3c0019e0	0.007818669
31	0x3caf42d0	0.021394163
32	0xbb996da9	-0.004682262
33	0xbcbb68ac	-0.02287706
34	0xb89755eb	-7.2162446e-05
35	0x3cdeaee1	0.027182998
36	0x3c68216b	0.014168124
37	0x3cf8493b	0.030308357
38	0x3b38d3dc	0.002820245
39	0xbcc20c51	-0.023687514
40	0xbbe41dcf	-0.0069615613
41	0xbd04ae99	-0.03239307
42	0x3d04ac52	0.0323909
43	0x3b46af08	0.003031673
44	0x3c5895aa	0.013219276
45	0x3bde37a6	0.006781536
46	0xbc987077	-0.018608315
47	0x3b374ef9	0.0027970655
48	0x3c25c42d	0.010117573
49	0xbd0e368a	-0.03471998
50	0xbcc783df	-0.024354873
51	0x3d0f0fb2	0.034927078
52	0x3c91b124	0.017784663
53	0x3c8dd050	0.017311245
54	0xbc6c23e0	-0.01441285
55	0xbd09ab88	-0.03361085
56	0xbc6e1778	-0.014531963
57	0xbcb564aa	-0.022142727
58	0xbc5fc8b1	-0.013658688
59	0x3d10265a	0.035192825
60	0x3cdb482c	0.026767813
61	0x3ccab560	0.02474469
62	0xbcf4017e	-0.029785868
63	0x3c5e361d	0.013562706
64	0xbcaefd9b	-0.021361163
65	0xbc233be5	-0.00996301
66	0x3ca13abe	0.01968133
67	0xbc52cc49	-0.012866088
68	0x3c8174dc	0.015802793
69	0x3c38c2e5	0.011276935
70	0xbc9127a6	-0.017719101
71	0x3c490512	0.012269275
72	0x3d0904d3	0.033451866
73	0xbb463169	-0.0030241853
74	0xbd1bbdce	-0.03802281
75	0x3c3b9877	0.011449925
76	0x3c781c13	0.015143412
77	0x3c8d605b	0.01725786
78	0xb981aa35	-0.00024731611
79	0x3bb61073	0.00555616
80	0x3c115f4d	0.008872819
81	0xbcc92e67	-0.02455826
82	0x3bf99be8	0.0076174624
83	0xbc1bc9b2	-0.009508537
84	0x3ba51f48	0.0050391294
85	0x3c134aa0	0.00898996
86	0xbcf48477	-0.02984832
87	0x3d057ba2	0.03258861
88	0x3d00f29a	0.031481363
89	0xbcefd0ba	-0.029274333
90	0xbbe94853	-0.0071192174
91	0x3c7cb766	0.015424585
92	0xbb49a407	-0.0030767934
93	0xbb52b150	-0.0032149144
94	0xbc97ffb7	-0.018554552
95	0x3d02552d	0.03181951
96	0xbce4fb06	-0.027951729
97	0x3d0ef723	0.034903657
98	0xbb2a720b	-0.0026007916
99	0x3c8d7e2f	0.017272083
100	0xbd1f3e2c	-0.03887765
101	0xbcd9e874	-0.0266001
102	0xbd33bdab	-0.043882053
103	0x3c5c1442	0.013432564
104	0xbd0834bf	-0.033253428
105	0xbcdc441e	-0.02688795
106	0x3bee8790	0.007279344
107	0xbc19a156	-0.009376844
108	0xbbbe922a	-0.005815764
109	0xbca5247e	-0.020159002
110	0xbc97c35b	-0.01852577
111	0xbcdd7753	-0.027034437
112	0xbd120e86	-0.035658382
113	0xbcc4b579	-0.024012314
114	0x3c9c489b	0.01907759
115	0x3be2f2bb	0.0069259084
116	0xbcacd984	-0.021099813
117	0x3ce27ab1	0.027646394
118	0x3aaad43b	0.001303322
119	0xbcce38f3	-0.02517364
120	0xbca37b78	-0.019956335
121	0x3bd5cc3d	0.0065245912
122	0xbc38ed77	-0.011287085
123	0x3d257271	0.040392343
124	0xbad3c8ef	-0.0016157905
125	0x3d113ed4	0.03546031
126	0xbc01b1cf	-0.007915928
127	0xbc837a2e	-0.01604947
128	0xbc4b83e7	-0.012421585
129	0x3c90ba25	0.017666886
130	0x3b30e921	0.0026994424
131	0xb86c788c	-5.6379053e-05
132	0xbc93c0e7	-0.018036319
133	0xbc3def40	-0.011592686
134	0xbce24e9f	-0.02762538
135	0xbd086600	-0.0333004
136	0xbc6e1ad0	-0.01453276
137	0xbcb85cad	-0.022505129
138	0xbb0648bd	-0.0020490133
139	0x3d026246	0.031832002
140	0x3c22d590	0.009938613
141	0xbcf01841	-0.02930844
142	0x3c5a1c27	0.013312376
143	0xbb88d8e5	-0.0041762465
144	0xbce825b3	-0.028338289
145	0x3ce70270	0.028199404
146	0x3c749ed7	0.0149304485
147	0xbce7028e	-0.02819946
148	0x3d1134c4	0.03545071
149	0x3ccf53bb	0.02530848
150	0xbc2f4156	-0.01069673
151	0x3cdefb49	0.027219431
152	0xbb899487	-0.004198614
153	0xbc9de134	-0.019272424
154	0x3d0f22ae	0.034945183
155	0x3cc9b13e	0.024620648
156	0xbc437888	-0.011930592
157	0x3c5f1282	0.013615252
158	0xbd0edf36	-0.03488084
159	0x3c73c115	0.014877577
160	0x3ca15331	0.019692989
161	0xbd280b5c	-0.04102646
162	0x3cd00f59	0.025397943
163	0xbc9d0d37	-0.01917134
164	0x3c9bc79f	0.019016085
165	0xbce1f317	-0.027581735
166	0x3cfad4c5	0.030619035
167	0xbcbcd41c	-0.02305036
168	0xbd0f0b60	-0.034922957
169	0xbcbaef5b	-0.022819212
170	0x3cc0a059	0.02351396
171	0x3c6e423b	0.014542158
172	0x3b8d0631	0.0043037166
173	0x3ba83fa4	0.0051345397
174	0xbc30c8e4	-0.010790084
175	0x3b153d96	0.0022772304
176	0xbc288c34	-0.010287333
177	0xbac93be9	-0.0015352938
178	0xbabd15cc	-0.0014426052
179	0x3d2c177d	0.042014588
180	0x3d03c4d2	0.032170124
181	0x3d145937	0.036217894
182	0xbc90a9d7	-0.017659111
183	0x3ca4eabf	0.020131467
184	0xbd1552ae	-0.036455803
185	0xbc864c52	-0.016393814
186	0xbc89535c	-0.016763382
187	0xbc464b03	-0.012102845
188	0xbc4d0542	-0.012513461
189	0x3c1615bd	0.009160456
190	0xba861c41	-0.0010231809
191	0xbd0c7ab9	-0.034296725
192	0x3c8e5fa3	0.017379588
193	0xbcb18c38	-0.021673307
194	0xbbcfe70b	-0.006344681
195	0xbba75e48	-0.0051076747
196	0x3b9670e2	0.0045910934
197	0xbc92696e	-0.017872538
198	0x3b3a543e	0.002843156
199	0xbafb40a8	-0.0019169049
200	0xbc627ac0	-0.013823211
201	0xbc052ac0	-0.008127868
202	0x3d405f28	0.046965748
203	0x3c566b4c	0.013087105
204	0x3ce15aba	0.027509082
205	0x3d56ccea	0.052441515
206	0x3d287a2a	0.04113213
207	0x3c8ed8d5	0.017437378
208	0x3d6fd096	0.058548532
209	0x3c2a6e03	0.010402205
210	0xbc5ac3e9	-0.013352373
211	0x3cde5762	0.027141277
212	0x3c82aeba	0.015952457
213	0xbcca2244	-0.024674542
214	0x3d13ccb2	0.036083885
215	0x3c2d9903	0.010595563
216	0xbc36d99d	-0.0111602815
217	0x3cd67fe3	0.026184028
218	0x3c361a51	0.011114673
219	0x3a0c646a	0.0005355539
220	0xbbf8966f	-0.0075862925
221	0x3cc12a5a	0.023579765
222	0xbd05889a	-0.032600977
223	0xbc8054db	-0.015665462
224	0xbc6f0ae3	-0.014589998
225	0xbc4cb184	-0.012493495
226	0x3c809564	0.015696235
227	0xbc4585ba	-0.012055809
228	0x3d2bc5fe	0.041936867
229	0x3d52c1c8	0.051454335
230	0x3cee12ab	0.029061636
231	0x3d49ecf1	0.04929823
232	0x3d57dc6b	0.05270044
233	0x3d51b0c0	0.051193953
234	0x3d0a66ac	0.03378932
235	0x3d88f804	0.0668793
236	0x3d7fda71	0.06246418
237	0x3da7b89f	0.081895106
238	0x3d00a6cd	0.031409074
239	0x3c75da75	0.0150056975
240	0x3c915e14	0.017745055
241	0x3d301898	0.042992204
242	0x3d7e2bf9	0.062053654
243	0x3d471f9c	0.04861413
244	0x3c3c351a	0.01148727
245	0xbc80cae3	-0.015721744
246	0x3beac8d7	0.0071650553
247	0x3cdfb15c	0.027306251
248	0xbc91a883	-0.017780548
249	0xbd0d4fdc	-0.034499988
250	0x3b0c433d	0.0021402382
251	0xbca41afa	-0.020032395
252	0xbc2a4b7a	-0.010393972
253	0xbc7a0dff	-0.015262126
254	0x3bfb1c33	0.0076632737
255	0xbc0712f4	-0.008244265

bias f4 [128]
0	0x3d04d29d	0.03242742
1	0xbcdee146	-0.027207028
2	0x3d3a611b	0.045502763
3	0xbd03a79f	-0.032142278
4	0x3d8dc30e	0.06921969
5	0x3d1694a2	0.03676284
6	0xbd3c8329	-0.04602352
7	0x3d1589e5	0.03650846
8	0x3cc903c0	0.024537921
9	0xbd0d198c	-0.03444819
10	0xbd2686a1	-0.040655736
11	0x3d4fad9c	0.050702676
12	0xbd27410b	-0.040833514
13	0x3d986268	0.074406445
14	0xbd27b15d	-0.04094063
15	0x3d3ecc72	0.046581693
16	0x3c96eab0	0.018422455
17	0xbd56e4b2	-0.052464195
18	0xbb45b605	-0.0030168307
19	0x3d8bc155	0.068239845
20	0xbc2b030d	-0.010437739
21	0x3cdcbf3e	0.02694666
22	0x3c9b3e03	0.018950468
23	0x3d67fb86	0.056636356
24	0x3de841f9	0.11340708
25	0xba0cb812	-0.0005368005
26	0xbd2a5ec7	-0.041594293
27	0xbced58ad	-0.028972948
28	0x3dad4d37	0.08461993
29	0x3c569ae3	0.013098451
30	0x3ccb7c71	0.024839612
31	0xbd3bcfe1	-0.045852546
32	0x3d65d0ac	0.056107208
33	0x3d313e69	0.04327241
34	0xbcf9967a	-0.03046726
35	0xbbd3d9a9	-0.006465156
36	0x3d9ebc81	0.07750798
37	0x3d125d69	0.035733614
38	0xbd814062	-0.06311108
39	0xbd1ed68e	-0.038778834
40	0x3d19ad3a	0.037518717
41	0xbc589b21	-0.013220579
42	0xbc551a6f	-0.013006791
43	0xbc52dc4e	-0.012869908
44	0x3b87dc9e	0.0041461727
45	0xbc3a0c74	-0.011355508
46	0x3ca263a0	0.019822896
47	0xbd8c4aa4	-0.06850174
48	0x3b2b3b84	0.0026128003
49	0x3da62afa	0.08113666
50	0x3da51a2b	0.08061632
51	0x3d9896f0	0.07450664
52	0x3d981287	0.07425409
53	0xbc377306	-0.011196857
54	0x3db2da48	0.0873304
55	0x3ca00175	0.019531945
56	0xbcff7fd2	-0.03118888
57	0x3cc843e9	0.024446445
58	0x3d68e58c	0.056859538
59	0xbb68dfbe	-0.0035533751
60	0xbd2490b9	-0.04017708
61	0x3c9694a9	0.018381434
62	0x3bd11650	0.0063808337
63	0x3c6ec90e	0.014574302
64	0x3c66ffe5	0.014099096
65	0x3cf41c9f	0.029798804
66	0xbc0b9477	-0.0085192835
67	0x3dec84f0	0.11548793
68	0x3d5f0fe1	0.054458503
69	0x3daff55d	0.08591721
70	0x3d868900	0.065690994
71	0xbd4638ab	-0.048393887
72	0x3d88da81	0.06682301
73	0xb7aafed0	-2.0384236e-05
74	0x3d0faccd	0.035076905
75	0x3dc27c6d	0.094963886
76	0xbc60effa	-0.01372909
77	0x3d3793cc	0.044818684
78	0x3d6c53b2	0.057697006
79	0x3cc2d032	0.023780916
80	0x3d9e6a62	0.07735135
81	0x3d744a88	0.05964139
82	0x3d4f22a4	0.050570145
83	0x3d4d3015	0.050094683
84	0x3cdad4c1	0.026712777
85	0x3d251440	0.040302515
86	0x3c4571b5	0.012051036
87	0x3d8f0c77	0.06984799
88	0x3d87f589	0.06638629
89	0x3c4eaf87	0.012615091
90	0x3d0ce40d	0.034397174
91	0x3da1ed55	0.079065956
92	0xbd47f6e2	-0.04881943
93	0xbdd8e1d8	-0.10589951
94	0x3ca8e190	0.02061537
95	0x39fe3c4d	0.00048491583
96	0xbd309fee	-0.04312127
97	0xbcbdd5d5	-0.023173252
98	0x3cb78f8f	0.022407321
99	0xbdb9cc26	-0.09072141
100	0x3c377cf5	0.011199226
101	0x3c8f4850	0.017490536
102	0x3cb24d90	0.0217655
103	0xbcee2792	-0.029071603
104	0xbd564983	-0.0523162
105	0x3d42e348	0.047580034
106	0x3d316730	0.043311298
107	0x3d55bb19	0.052180383
108	0x3ad79f6f	0.0016450713
109	0x3d09031d	0.033450235
110	0x3d818604	0.063243896
111	0x3cd20c29	0.025640564
112	0x3d18cdca	0.03730563
113	0xbce60376	-0.028077822
114	0x3e079bde	0.13243052
115	0x3c739369	0.014866688
116	0xbd53a148	-0.05166748
117	0x3dbd576e	0.092451915
118	0x3e2de6ee	0.16982624
119	0x3d478c61	0.04871786
120	0x3cc41d36	0.02393971
121	0x3adc566d	0.0016810425
122	0x3e08a72e	0.13345024
123	0xbd8824ce	-0.06647645
124	0xbce99526	-0.028513502
125	0xbd651d2e	-0.05593603
126	0x3d93d316	0.07217996
127	0xbbd490f8	-0.006487008

weight f4 [10, 128]
0	0xbe3e5ebf	-0.1859083
1	0xbd0d1ed5	-0.03445323
2	0x3e7697a9	0.24081291
3	0x3dfb474a	0.12269457
4	0x3e5c5038	0.21514976
5	0x3d57008d	0.05249076
6	0xbd94f1c1	-0.072726734
7	0x3e109890	0.14120698
8	0x3c904f22	0.017615858
9	0xba61b707	-0.0008610342
10	0xbe19b74a	-0.15011325
11	0xbe418978	-0.18900096
12	0x3ecdb88b	0.40179858
13	0xbd896ba9	-0.06709988
14	0xbcb71d93	-0.02235297
15	0xbe0c4fd9	-0.13702334
16	0xbd613a5a	-0.05498729
17	0xbe310c0b	-0.1728975
18	0xbdaf1729	-0.08549339
19	0xbe43017c	-0.19043535
20	0x3e1a8b0a	0.15092102
21	0x3e925b4a	0.28585273
22	0xbe242537	-0.16029821
23	0x3dac5131	0.084139235
24	0xbe0ef1d7	-0.13959442
25	0xbdf3d8f5	-0.11906616
26	0xbe25c017	-0.16186558
27	0xb93215d2	-0.00016983532
28	0xbe2657db	-0.16244452
29	0x3d70879b	0.058723073
30	0x3ea083b7	0.3135049
31	0x3e40c7b5	0.18826182
32	0x3e5e1fc4	0.21691805
33	0xbbfcb958	-0.0077125244
34	0x3e34c033	0.17651443
35	0xbe61e5e5	-0.22060354
36	0x3e739e58	0.23790872
37	0x3e85af9d	0.26110545
38	0x3e5205d2	0.20510033
39	0x3c7c19b0	0.015386984
40	0x3c9b4ca5	0.018957445
41	0xbc82783d	-0.015926475
42	0xbdf90162	-0.12158467
43	0xbc492618	-0.012277149
44	0xbe48bc5c	-0.19603103
45	0x3dbcf41b	0.09226247
46	0x3d48db6f	0.049037393
47	0x3e22ba83	0.15891461
48	0xbd19eda8	-0.037580162
49	0x3eb0de35	0.3454453
50	0x3caf2f31	0.021384807
51	0xbe1807a2	-0.14846662
52	0x3dea3eaa	0.114377335
53	0x3e0460e1	0.12927581
54	0x3d327e93	0.04357774
55	0xbd4063b6	-0.04697009
56	0x3dad130e	0.084509
57	0x3d0a9d21	0.033841256
58	0xbe0f1e39	-0.13976373
59	0xbd40a316	-0.04703053
60	0xbe54a30f	-0.20765327
61	0xbcdc5a65	-0.026898572
62	0x3c2d2094	0.010566849
63	0x3d74c889	0.059761558
64	0xbc60b194	-0.013714213
65	0xbcf60076	-0.030029517
66	0xbca57b5d	-0.020200426
67	0xbe2bb078	-0.16766536
68	0x3e6857c2	0.22689727
69	0xbe42a379	-0.19007672
70	0xbe39900e	-0.18121359
71	0xbdecea00	-0.115680695
72	0xbdc35c8c	-0.09539136
73	0x3ed73da6	0.42039222
74	0xbc3c8103	-0.011505368
75	0xbe04ae54	-0.12957126
76	0x3d8ca114	0.06866661
77	0x3d7dfc94	0.062008455
78	0xbcb7c6ea	-0.022433717
79	0xbe4b9e08	-0.19884503
80	0xbebc7ca6	-0.3681385
81	0x3ecb1fde	0.3967275
82	0xbe4c389b	-0.19943468
83	0xbe2a60ac	-0.1663844
84	0x3c1a5131	0.009418772
85	0xbd4f9c93	-0.05068643
86	0x3e782d0c	0.24235934
87	0xbe3d4984	-0.18485075
88	0xbd3d27df	-0.046180602
89	0x3e2c0f46	0.16802701
90	0xbce4c65a	-0.027926613
91	0x3e90ae4d	0.2825798
92	0x3e2e3950	0.1701405
93	0xbe103afd	-0.14085002
94	0xbd6d6337	-0.057955947
95	0xbe0fa13f	-0.14026354
96	0xbccf8798	-0.02533321
97	0xbd87c9d0	-0.066302896
98	0x3c6a0966	0.014284467
99	0x3e25c4a2	0.1618829
100	0x3a601c91	0.00085491786
101	0xbe70e705	-0.23525627
102	0x3dae733d	0.08518074
103	0xbdeb29c6	-0.11482577
104	0xbe0b0d1b	-0.13579218
105	0xbdd59fc5	-0.10430864
106	0xbca5a45f	-0.02021998
107	0xbe24090d	-0.16019078
108	0xbe44c760	-0.1921668
109	0xbe4d312a	-0.20038286
110	0xbe2e1c65	-0.17003019
111	0xbd7a69ee	-0.06113618
112	0xbe4a468b	-0.19753473
113	0xbd1ffbbc	-0.039058432
114	0xbe490f28	-0.19634688
115	0xbd30d662	-0.0431732
116	0xbe3a7471	-0.18208481
117	0xbe64a98a	-0.22330299
118	0x3ccb0b0d	0.024785543
119	0xbea2dde9	-0.3180993
120	0xbdb260ba	-0.087098554
121	0xbce83ed4	-0.028350271
122	0xbe18f168	-0.14935839
123	0x3e086a20	0.13321733
124	0xbe4c6bb2	-0.19962958
125	0xbe2d6c30	-0.16935802
126	0xbe1d97c9	-0.15389933
127	0xbc6fe3e6	-0.014641738
128	0x3dab466f	0.083630435
129	0xbe19d804	-0.1502381
130	0x3e05d375	0.13068946
131	0xbe5bbe82	-0.21459392
132	0xbe794c31	-0.24345471
133	0x3d852a91	0.065022595
134	0x3d26b019	0.040695284
135	0xbd9655dc	-0.07340595
136	0xbd66b12a	-0.0563213
137	0xbe64cc41	-0.22343542
138	0x3dec51e0	0.11539054
139	0x3e93a015	0.2883307
140	0xbe9110be	-0.28333086
141	0x3d1ed4cd	0.03877716
142	0xba629d87	-0.0008644689
143	0xbe2ef91f	-0.1708722
144	0x3e6fd8cc	0.23422545
145	0xbe145f6f	-0.1448953
146	0xbd41d104	-0.047318473
147	0x3e4bc9a5	0.1990114
148	0xbe214de0	-0.15752363
149	0xbd0c8fe1	-0.0343169
150	0x3da7f1f5	0.082004465
151	0xbd49e519	-0.04929075
152	0x3e1af775	0.1513346
153	0xbe2564fd	-0.16151805
154	0xbd749cd0	-0.05971986
155	0x3d9e1df6	0.07720558
156	0x3ddc55e5	0.107585706
157	0xbe07bf92	-0.13256672
158	0xbd460a4e	-0.04834967
159	0xbc0e45dd	-0.008683649
160	0xbe7d54f0	-0.24739432
161	0x3e52af35	0.20574649
162	0xbe76ec03	-0.24113469
163	0x3e1e2389	0.15443243
164	0xbe3ec8b9	-0.18631257
165	0xbe5f2060	-0.21789694
166	0xbe9f26fe	-0.31084436
167	0xbd1b4633	-0.037908744
168	0xbe096f8e	-0.13421461
169	0x3dede1e9	0.116153546
170	0xbcc8c8d1	-0.02450982
171	0x3d931e29	0.07183487
172	0x3dce1ed7	0.10064476
173	0xbc793737	-0.015210918
174	0xbe5d04a4	-0.21583802
175	0xbde3488f	-0.11097824
176	0x3d30ce1a	0.043165304
177	0xbdbe1648	-0.092815936
178	0x3e9099bd	0.28242293
179	0xbe01f009	-0.12689222
180	0xbe78d3a9	-0.24299492
181	0x3de2a284	0.11066154
182	0xbc870842	-0.01648343
183	0x3dad92f1	0.084752925
184	0xbc96a9eb	-0.01839157
185	0xbce68534	-0.028139688
186	0xbe5c8965	-0.21536787
187	0x3d3229c3	0.04349686
188	0xbcb52110	-0.022110492
189	0xbc370ddf	-0.011172741
190	0x3d2b8a2c	0.041879818
191	0xbc3597e5	-0.011083578
192	0xbbb08c1e	-0.005387797
193	0xbd63a7f9	-0.055580113
194	0xbab16b7f	-0.0013536065
195	0xbe85d5c1	-0.26139644
196	0xbe212f49	-0.15740694
197	0x3e0a54fa	0.13508978
198	0x3d473bac	0.048640892
199	0xbe21b82e	-0.15792915
200	0xbc5ba921	-0.013407023
201	0xbe51ef8a	-0.20501533
202	0xbcfeb657	-0.031092806
203	0x3eb18b5c	0.34676635
204	0xbdbcbad9	-0.09215326
205	0xbe215550	-0.157552
206	0x3d671d1b	0.05642424
207	0xbe20bcb4	-0.15696985
208	0x3ef7b8b0	0.48383093
209	0xbe27b5c3	-0.1637793
210	0x3decfcae	0.11571632
211	0x3d177652	0.036978073
212	0xbd29288e	-0.04129844
213	0xbd677092	-0.05650384
214	0xbe4ba10d	-0.19885655
215	0x3e1e0d1c	0.15434688
216	0x3ea46305	0.32106796
217	0xbe0a684e	-0.13516352
218	0xbe5f8e74	-0.21831685
219	0xbe309a4d	-0.17246361
220	0xbd141bcd	-0.036159325
221	0x3e3135e8	0.1730572
222	0xbd625cdd	-0.055264343
223	0x3e316709	0.17324461
224	0xbe0743cd	-0.13209458
225	0xbe6d548e	-0.23176786
226	0xbd95cc5b	-0.07314368
227	0xbe781c6f	-0.24229597
228	0x3d3fe9c1	0.046853784
229	0x3e2b4296	0.1672462
230	0xbe1b4999	-0.15164794
231	0x3e7ad65c	0.24495834
232	0x3e906aab	0.2820638
233	0x3e27c387	0.16383182
234	0x3d32bad0	0.04363519
235	0x3eac0291	0.33595708
236	0xbdad88f1	-0.08473385
237	0x3b427e6a	0.00296774
238	0x3c5d3d8d	0.013503444
239	0xbda91492	-0.082558766
240	0xbdba9bb2	-0.09111728
241	0xbdd3672a	-0.10322411
242	0xbe07431c	-0.13209194
243	0xbd14102e	-0.036148243
244	0x3cd95d75	0.026533822
245	0xbe8f9216	-0.28041142
246	0xbe0ea3de	-0.13929698
247	0x3ef4907a	0.47766477
248	0xbd2979d3	-0.041375946
249	0xbe389994	-0.18027335
250	0x3d41904c	0.047256753
251	0x3c4f37d4	0.012647588
252	0x3d5f71b5	0.0545518
253	0xbe4d9308	-0.20075619
254	0xbe420bee	-0.18949863
255	0x3d90074c	0.07032642

bias f4 [10]
0	0xbdfc801f	-0.12329125
1	0x3e5d9309	0.2163812
2	0x38b5f966	8.677207e-05
3	0xbd0de542	-0.034642465
4	0x3da4b4e5	0.080423154
5	0x3e92edba	0.28696996
6	0xbdae4021	-0.08508325
7	0x3e1b1d93	0.15148
8	0xbe84bdcd	-0.25926057
9	0xbcbdc601	-0.023165705
