mnist_model_fully_connected.pt (torch, 308943 bytes, 4 tensors)

weight f4 [64, 1176]
000000 60 7b c5 3c b8 79 b0 bb cc 16 ea bc c0 74 09 3c
       0.024106681 -0.0053856038 -0.028575324 0.008389652
000010 e4 2e dd 3c e6 aa cf 3c 04 4c eb bc ae 04 d7 3c
       0.026999898 0.025350045 -0.02872277 0.026247349
000020 54 ff 10 3c 7f f6 db bc 2e 56 e5 3c 80 b7 d3 3a
       0.0088499375 -0.026850937 0.027995195 0.001615271
000030 8a 1f 7b 3b d3 20 32 3c 20 55 0f 3c 27 c5 8e bc
       0.003831836 0.010872084 0.008748323 -0.017427994
000040 ae c8 88 3c 5e fa a8 3c bb 48 76 bc 28 df 66 3c
       0.016697254 0.020627197 -0.015031989 0.0140912905
000050 24 e8 a9 bb 60 eb 9a bc c6 ad 37 bc 90 b9 5f bb
       -0.005185144 -0.018911064 -0.011210864 -0.0034137703
000060 e1 67 83 bc 78 47 86 3c 8e af 8c 3c 2c 6c 62 bc
       -0.016040744 0.0163915 0.017173555 -0.0138197355
000070 f6 4a 94 bc 00 60 ae 36 30 30 d1 3b 9a 19 8f 3c
       -0.01810215 5.19678e-06 0.006383918 0.017468262
000080 70 8a 7a bb 60 a0 99 bc d0 42 2f bb 0c 40 89 3c
       -0.0038229488 -0.01875323 -0.0026742704 0.016754173
000090 66 4f c3 bb d6 9c 40 3c 5d 27 da bb ae 94 76 bc
       -0.0059603928 0.011756143 -0.0066575245 -0.015050096
0000a0 78 23 c3 ba e5 00 c2 bc 6d ce f0 3c 63 e8 b1 bb
       -0.001488789 -0.023682067 0.029395306 -0.005429314
0000b0 c5 6a 3b bc 66 40 5a 3b d3 9d 8a bc fb 9b b1 bc
       -0.01143903 0.0033302545 -0.01692096 -0.021680823
0000c0 21 81 46 bc 2c 38 e3 bc 79 56 bd bc 16 96 c3 3c
       -0.012115748 -0.027736746 -0.023112522 0.023875277
0000d0 fc e9 6d 3c b0 94 67 3c c0 ce 40 bc 72 d0 e0 bc
       0.014521118 0.014134571 -0.011768043 -0.027443144
0000e0 aa 66 42 bc 60 1b 94 bc 00 b8 36 bc e2 dd db 3c
       -0.011865297 -0.01807946 -0.011152267 0.0268392
0000f0 00 04 b1 3c 2e 9c b5 3c 4c 84 91 bc 18 cb 21 bb
       0.021608353 0.022169199 -0.01776328 -0.0024687704
000100 68 d2 30 bd 15 96 30 bc 1d 92 5f bc 4c 44 ef bc
       -0.04316941 -0.01077797 -0.013645676 -0.029207371
000110 d4 30 a5 3c 4a 2a e8 bc 32 07 dc bc 5a 62 97 3a
       0.020164885 -0.028340477 -0.0268589 0.0011549697
000120 ab 13 94 bc 16 12 c8 bb f6 37 ac 3b ff f6 10 3c
       -0.018075785 -0.0061056716 0.0052556945 0.008847951
000130 2e b3 97 ba 69 5d a6 bc bb b1 9b bc 3e 78 9f ba
       -0.0011573785 -0.020308213 -0.019005647 -0.0012166572
000140 74 d6 c5 bc f9 05 27 bd 08 ce cb 3b 88 66 fe bb
       -0.02415011 -0.04077718 0.006219629 -0.0077636875
000150 60 d2 86 3b a8 86 f0 3b f6 a5 c7 bc f8 84 ac 3c
       0.004114434 0.007340271 -0.024371129 0.021059498
000160 1f 18 de 3c 62 b8 2b bc 35 1d 07 3c 31 68 f0 3b
       0.027111111 -0.010480972 0.00824671 0.0073366393
000170 5d 2e 7b bd 7b bb e5 bd 10 4c ba bd 80 29 8b bd
       -0.061323512 -0.112174 -0.09096539 -0.06795025
000180 93 12 f9 bd 0a b5 bc bd 38 1d db bd 04 4a 4b bd
       -0.12161746 -0.09214218 -0.106989324 -0.049631134
000190 51 9b 9a bb ad 2f 11 3d ce 78 d2 bc 80 01 5b 3d
       -0.004718222 0.035445858 -0.02569237 0.053468227
0001a0 9c 68 cc 3c 98 34 b3 bc da 17 d5 3b 4a 6e 6a bb
       0.024952225 -0.021875665 0.0065030875 -0.0035771304
0001b0 53 1d f6 bc e2 c7 01 bd c3 29 77 bc 8a d3 b4 bc
       -0.03004328 -0.031684764 -0.01508564 -0.022073526
0001c0 78 82 ee bc c2 9b a0 bc c5 9a 7f 3c ff 6b ff 3b
       -0.029114947 -0.019605521 0.015600865 0.0077948566
0001d0 25 05 0e bc ed 69 d7 3c 31 a0 96 bb a3 04 59 bd
       -0.008668219 0.026295627 -0.004596733 -0.052982938
0001e0 9c 97 c1 bd 1f 4e c9 bd 89 48 59 bc 76 75 b1 bd
       -0.09452745 -0.098293535 -0.013261923 -0.08664982
0001f0 19 22 45 be f6 44 d7 3c b4 c4 8d bd 88 38 6e be
       -0.19251288 0.026278 -0.06922284 -0.23263752
000200 bc be 18 be 8b c7 86 bd 07 3b 0f bd 14 1a 5f 3a
       -0.1491651 -0.065810286 -0.034968402 0.0008510661
000210 00 44 89 3d 20 eb 58 3d cd 6d 1b 3d b6 ba be bc
       0.06702423 0.052958608 0.03794651 -0.02328239
000220 08 65 39 bd 49 be 1b bd 61 f0 e9 ba ba 4b d5 3c
       -0.045262367 -0.038023267 -0.0017848128 0.026037086
000230 1c f4 04 3c 5a 09 c4 bc c3 dc 44 3c b9 95 21 bb
       0.008114841 -0.02393024 0.012015524 -0.0024655892
000240 88 47 a1 bc f0 a9 b1 3d 86 e3 c7 3d a2 51 f5 bc
       -0.01968743 0.08674991 0.097601935 -0.029946152
000250 4f 8c a3 bd dc 34 f5 bc 4c 00 4e bd cf cf ea bb
       -0.07985746 -0.029932432 -0.050293252 -0.007165886
000260 07 46 02 be 33 ef 5f bd f3 62 cc bc 71 19 0b bd
       -0.12722026 -0.054671478 -0.024949526 -0.03395981
000270 42 51 97 bd e1 8a 5d bd 2d 38 23 bd 08 08 aa bd
       -0.073885456 -0.054087523 -0.039848495 -0.08302313
000280 4c 83 87 bd fd 08 c3 bc c0 54 f5 3c e4 2e 47 bb
       -0.0661684 -0.023807997 0.029947639 -0.003039294
000290 1b 39 11 3d b3 92 1a bd 64 11 c3 3c 49 bb 93 bc
       0.03545485 -0.03773756 0.023812003 -0.01803364
0002a0 31 97 e9 bc 76 a7 98 bc ff f4 a5 3c b4 3f ad 3c
       -0.028514476 -0.01863454 0.020258425 0.02114854
0002b0 bb 75 97 bb 18 57 54 3d 7e 88 60 3d 4a 17 bc bc
       -0.004622189 0.05184087 0.05481767 -0.022960324
0002c0 ca 67 bf bd 66 c0 78 3d 54 61 af bd 66 39 91 bd
       -0.09345968 0.06073036 -0.08563486 -0.07091026
0002d0 56 17 2e bc 16 87 c9 ba e3 0f 0d be e4 52 0e bd
       -0.010625681 -0.0015375342 -0.13775592 -0.03474702
0002e0 88 6f 9b bd b3 f1 78 bd 8b 10 68 bd ab 19 ce bd
       -0.07589632 -0.060777377 -0.0566564 -0.100634895
0002f0 ef ff 1e 3d 2b d5 4c 3c 22 3f d1 bc b4 9e 0d 3b
       0.038818296 0.012501995 -0.0255428 0.0021609487
000300 c6 b5 ce 3c e1 65 3f bd 29 bb 3c bb 29 bc dd 39
       0.02523316 -0.04672802 -0.002879808 0.00042292595
000310 fe 92 70 3b d2 2c 77 bc f4 c7 90 3b 40 1b 17 3a
       0.0036708708 -0.01508637 0.0044183675 0.00057642534
000320 f2 bf c6 bb 63 0a 50 bc 0b e3 48 bd 2c e0 78 bd
       -0.006065362 -0.012697789 -0.04904465 -0.060760662
000330 40 5e 05 be a2 00 fb bc 99 b0 c5 bc cd bd a5 bb
       -0.13024235 -0.03063995 -0.02413206 -0.0050580264
000340 c5 4e 83 bd d5 16 0a be 26 b1 54 be 78 42 bc bc
       -0.064115085 -0.13485272 -0.20770702 -0.022980914
000350 1c fd 16 be c0 a6 ee bd 96 66 18 3b 48 bc 16 be
       -0.14744991 -0.11652899 0.0023254505 -0.14720261
000360 af 31 36 3d 61 68 6b 3c fe f8 f7 bd 54 36 34 bc
       0.044480976 0.014368148 -0.12108038 -0.010999281
000370 73 f2 bd 3b fb d3 15 3d 99 07 96 ba 29 26 71 bc
       0.0057967245 0.036579113 -0.0011446356 -0.014718571
000380 7b 5a 48 bc 5b 24 6b bc c7 81 85 38 9b 6f 76 3c
       -0.0122286035 -0.01435193 6.366107e-05 0.015041257
000390 58 90 e9 3d b3 80 b9 3d b5 67 85 3c 47 8e 8f 3d
       0.114044845 0.090577506 0.016284803 0.07009559
0003a0 54 48 61 bd b5 67 a8 bb aa da 12 be 02 57 80 bd
       -0.055000618 -0.005139316 -0.14341226 -0.062665954
0003b0 2b 8b 7c 3c 44 f2 2f 3e 32 e6 d4 bd 9b 4d 9d bd
       0.01541404 0.17182261 -0.10395469 -0.07680818
0003c0 36 44 28 be cf cd 8a 3b e2 62 86 3d fa 46 ec bd
       -0.1643227 0.00423596 0.06561829 -0.11536975
0003d0 bd 94 07 be 25 fb 14 bd c0 0f f4 bd 22 24 08 be
       -0.13240333 -0.036372323 -0.119170666 -0.13295034
0003e0 17 a6 4f bd f2 23 5a 3b 49 f8 ca bc 4a c9 9b bc
       -0.050695505 0.0033285585 -0.024776595 -0.01901688
0003f0 77 93 04 bc 1d 1d 4d bc 28 2f fa bc d4 b7 2f bd
       -0.008091799 -0.012519148 -0.030540064 -0.04289992

bias f4 [64]
000000 54 8d 36 3e 40 91 66 3d 59 96 92 bd 3f d9 1b bc
       0.1782735 0.056290865 -0.07157583 -0.009512245
000010 93 d0 df bc 75 53 c1 3d 98 a6 4a 3e 3d 17 37 be
       -0.027321136 0.09439746 0.19790113 -0.17879958
000020 5c 71 83 3e 1f a6 6a 3d 40 c3 76 bd 92 69 de be
       0.25672424 0.05728733 -0.0602448 -0.4343992
000030 a4 19 a6 3e 62 05 2c 3d 5d a7 36 be 5c fb 05 bd
       0.32441437 0.04199732 -0.17837282 -0.032710418
000040 bc 5b 27 3e 9a 44 0d 3b 54 c8 42 bd 59 7f 7b 3e
       0.16343588 0.0021555782 -0.04755433 0.24560298
000050 a6 ac 8d 3e be 7c c3 3d 2c 67 10 be 99 bf f3 bc
       0.27670783 0.09545277 -0.14101857 -0.029754447
000060 b1 9e 39 3e 3c 04 8b 3d c5 4d ef 3e 79 d3 86 bd
       0.18126942 0.06787917 0.4673902 -0.06583304
000070 b8 cf 5f be d8 d1 22 3f f5 83 c2 3e 01 ba 4f 3e
       -0.21856582 0.63601446 0.379913 0.20285799
000080 67 b2 1b be 34 f4 ce bd e3 9b 47 bd af e0 d9 3e
       -0.15204774 -0.10105172 -0.04873265 0.42554232
000090 b4 58 40 be ce f7 49 bf b1 fd 7b be eb de 76 bd
       -0.18783838 -0.78893745 -0.24608494 -0.060271185
0000a0 fb 7b 6f 3d 9f 6e fe 3d 31 6f 98 be 5a 71 5b 3e
       0.058467846 0.12423443 -0.29772332 0.21429959
0000b0 e5 c1 3e be ea c8 4a be 9c f5 41 3e 8d 0b ee 3e
       -0.18628652 -0.19803205 0.18941349 0.46493188
0000c0 e6 58 d7 3c 45 f5 16 3d 1a 5f ac 3e 89 7c a6 bd
       0.026287507 0.036855 0.33666307 -0.08129222
0000d0 3b a8 94 3e 12 9b 98 be 15 66 6d 3e 94 09 4b be
       0.290346 -0.2980581 0.23183472 -0.19827873
0000e0 05 54 24 3f c2 7d bd 3e 20 83 ce 3d ab 07 98 bd
       0.64190704 0.37010008 0.10083604 -0.074233375
0000f0 d1 3d 39 be 8c 79 6a bd 71 b2 9c bd 37 04 c1 bd
       -0.18089987 -0.057244822 -0.076512225 -0.09424632

weight f4 [20, 64]
000000 6f 05 18 bf c2 82 b3 3e 6d 65 bb be eb 49 09 3f
       -0.5938329 0.35060698 -0.3660082 0.53628415
000010 12 6c 2e 3e 6a 3c 72 bd ef d0 97 bd 7c d4 d3 be
       0.17033413 -0.059139647 -0.07412898 -0.4137305
000020 00 c5 87 be 62 f7 80 3e 61 fa 7c 3d 8e 93 75 bd
       -0.26517487 0.25188738 0.061762217 -0.059955172
000030 71 e2 1f bf 07 21 70 3e 4a b0 8c bd 5c a5 da 3e
       -0.624549 0.23450099 -0.06869562 0.42704284
000040 a8 fb af 3e 02 1a a4 3e ea ab 7c 3e 50 e0 b1 3d
       0.34371686 0.32051092 0.24674955 0.08685362
000050 eb 1a 4e be f8 d4 e1 be 63 f0 ba 3d 34 ee f8 3c
       -0.20127456 -0.44107795 0.091278814 0.030387022
000060 e9 92 ec be 74 bf 93 be de 7c e0 be 4a 25 bb 3e
       -0.46205834 -0.28857005 -0.43845266 0.36551887
000070 a3 fd e4 be 54 ff 95 3e 5b fb 43 3e 42 63 aa 3d
       -0.4472476 0.29296362 0.19138853 0.08319713
000080 89 6a 0e 3e b5 81 bd be 2f 15 7d 3d c3 4f 29 3c
       0.13907827 -0.3701302 0.06178778 0.010333958
000090 e2 5d 01 3e 6c 86 a3 3e 3c 73 6e be 72 57 c5 3e
       0.1263347 0.31938493 -0.23286146 0.38543278
0000a0 6d 8f 4f 3e 15 4b f0 be c0 3b 7d be 90 b5 e8 3d
       0.20269556 -0.46932283 -0.24729824 0.11362755
0000b0 53 86 f2 be 6d 94 9f 3e ca 8f 0b bf 5e 8a d1 be
       -0.47368106 0.31167927 -0.5451628 -0.40925878
0000c0 47 2b ca 3d b0 f3 d9 bc 81 f0 53 bc 12 00 c4 3e
       0.09871536 -0.026605457 -0.012935759 0.38281304
0000d0 a0 20 9f 3e f0 92 2d 3e 37 fc b8 be 37 c7 8e be
       0.31079578 0.16950583 -0.36129925 -0.27886364
0000e0 01 1f 66 be 86 d1 73 3e 2b 2e e1 be 09 98 86 3e
       -0.22472765 0.23810396 -0.43980536 0.2628787
0000f0 00 98 03 be 0c d3 b0 3e 2d e8 ec bc d2 ef af 3e
       -0.12850952 0.34536016 -0.028919304 0.34362656
000100 eb 0d cb 3e a8 85 8e be 51 5f c1 be ed 9e 1d 3e
       0.39659056 -0.27836347 -0.37768033 0.15392657
000110 dd f0 c7 3e 6c 82 7f 3e 4f b4 91 3e 9b c1 1a 3f
       0.39050952 0.24952096 0.28457877 0.6045167
000120 a9 22 05 be 75 74 06 bf cd 54 0b 3e 84 1d 25 be
       -0.13001503 -0.5252145 0.13606568 -0.1612454
000130 ea 99 9b 3e 03 17 85 3e 27 7b f5 bd cd dc bf 3e
       0.30390865 0.2599412 -0.1198638 0.37473145
000140 f4 26 c7 be cf 2a b2 bd 9c 26 bb be 17 bf 13 3f
       -0.38896906 -0.08699571 -0.36552894 0.57713455
000150 04 09 ec 3d a5 73 a7 3e 8f fd 8f 3e 5b 79 28 3e
       0.11525157 0.32705417 0.28123137 0.16452543
000160 66 b7 22 3e 94 9a d1 3e 6f 1b 93 3e 9d 01 8e bb
       0.15890273 0.40938246 0.28731868 -0.0043336884
000170 3b 94 8d be 52 6f 8d 3d 58 17 bb be e6 fc 9f be
       -0.27652153 0.06905998 -0.36541247 -0.31247634
000180 65 00 95 3c 61 33 50 3e da bc b9 be 5c c4 bb be
       0.018188665 0.203321 -0.36276895 -0.36673248
000190 89 e1 73 3c 2b 3d 8f be b5 6c 5f be 2c 64 d2 3d
       0.014885315 -0.27976355 -0.21818812 0.102730125
0001a0 b4 c4 e3 be fd e5 86 3e 86 12 ab be 04 fb 50 be
       -0.4448601 0.26347342 -0.3341257 -0.20408255
0001b0 4e bf 88 3e 5c 87 09 3d a4 c1 40 be 45 bb 2a be
       0.26708454 0.033576354 -0.18823868 -0.16673
0001c0 bb 7e 3b be 9f c2 b1 bd bb 38 62 3e aa 4a 06 be
       -0.18310063 -0.08679699 0.22091953 -0.1311442
0001d0 68 70 12 be 8b 3f e5 3e 2b b0 54 3e 41 05 37 3e
       -0.14300692 0.44775042 0.20770328 0.17873098
0001e0 9b da c2 3e 45 02 81 3e a9 18 d9 3e 7f d8 f4 be
       0.38057408 0.25197044 0.42401627 -0.47821423
0001f0 05 1d e1 3e ef 11 9f 3e 8e b9 e9 3d 7f 1f 8c be
       0.43967453 0.3106837 0.11412345 -0.2736778
000200 43 9f 1e bf 59 09 38 3e 27 f7 aa 3c f5 dd e8 3c
       -0.61961764 0.17972316 0.020869805 0.02842615
000210 10 56 88 bd 8f 24 1c bf b8 65 83 bd 30 81 a5 3e
       -0.0665704 -0.60993284 -0.06415886 0.32325125
000220 03 6b 85 3e d2 ca 8f 3e 82 5b 9f be 2c 28 14 be
       0.26058206 0.28084427 -0.31124502 -0.1446845
000230 da f0 ee bc 66 55 f5 be 26 3d 40 be d9 d3 97 3d
       -0.029167581 -0.47916716 -0.18773326 0.074134536
000240 c9 1c 08 bf 1e 93 b2 3d 3b c1 b8 3e 89 4d e0 be
       -0.5316892 0.087194666 0.36084923 -0.43809155
000250 9e 4e bc 3e da e7 c3 be dd fd 88 3e 12 94 d5 3e
       0.3677873 -0.38262826 0.26756182 0.4171453
000260 63 4f e7 3e 28 5a 71 3e 3a d1 c5 3d 60 7e 0a bf
       0.45177755 0.23569548 0.096590474 -0.5409908
000270 36 de 45 be 26 e1 bf bd 97 04 9d be b6 de 84 3e
       -0.19323048 -0.093691155 -0.30667564 0.25951165
000280 8a a6 eb bd 6c 38 b9 be 47 6b 97 3e 24 be cc 3d
       -0.11506374 -0.3617586 0.29574034 0.09997204
000290 4d a2 63 3e 33 79 e9 3e c4 7e bb be 09 aa ab bd
       0.22229882 0.4560028 -0.36620152 -0.08382041
0002a0 19 3d e7 bd 36 fe eb bd 2a 65 b0 bd 6d de e4 3e
       -0.1129095 -0.11523096 -0.086130455 0.44700947
0002b0 7c 86 c2 be 37 f7 6c 3e 37 d9 83 bc f1 f4 b7 be
       -0.37993228 0.2314118 -0.016094787 -0.35929063
0002c0 37 ed 42 3e 9d ae 06 bf 56 b7 1f 3c 68 fa 6b be
       0.19035803 -0.5261019 0.009748301 -0.23044741
0002d0 7e 57 f3 be d0 c3 a2 bc bd b6 c6 3c b1 60 34 3e
       -0.4752769 -0.019868761 0.024257058 0.1761501
0002e0 26 d3 0f be 38 f4 a7 be 1c 70 b4 3e c7 b1 df 3d
       -0.1404539 -0.32803512 0.35241783 0.1092258
0002f0 af 73 c3 3e cf 8f 8d 3e 85 22 76 be f6 96 c2 bc
       0.38174197 0.2764878 -0.24036606 -0.023753624
000300 fa 38 0b be 1d e1 a6 3e 7c 19 91 be 8c f0 f5 be
       -0.13595954 0.32593623 -0.28339756 -0.48035085
000310 18 76 92 3e 4f f7 b5 bd 3b 7b be be d5 1b ef 3e
       0.28605723 -0.08885061 -0.37203392 0.46700922
000320 55 91 bb 3d ff 31 4f be 42 46 18 bf 9f 1f a3 be
       0.09158579 -0.20233916 -0.59482205 -0.31860062
000330 d5 0e 32 bd fc f8 1e 3e d3 7c 15 3d 2b b5 12 3e
       -0.043471176 0.15524668 0.036495995 0.14326923
000340 c6 9b a6 3e 8c f5 72 be 57 81 a0 3e a7 0d c6 be
       0.3254072 -0.23726481 0.31348678 -0.3868229
000350 25 d1 62 3e 9b 97 18 bd a8 ea 01 3e 91 00 8b 3c
       0.22150095 -0.037253957 0.1268717 0.016968044
000360 12 dd d6 bd e0 82 05 be d4 92 1b 3e b2 bd 96 be
       -0.104913846 -0.13038206 0.15192729 -0.294416
000370 c1 86 56 be 38 c3 dd be 9c 6a 5c bc 03 13 33 bc
       -0.20949842 -0.43313003 -0.013453152 -0.010929826
000380 22 4b 5c 3e 47 ba e8 be e2 a5 f9 be 88 9c d9 3d
       0.21513036 -0.45454618 -0.4875937 0.10625559
000390 2e 00 bf 3e 91 57 5e 3e 7b 86 9e 3e 42 6a 9b be
       0.37304825 0.21713091 0.30961975 -0.30354506
0003a0 00 51 39 be af 26 32 be 11 70 d3 3d 9e 49 f7 3d
       -0.18097305 -0.17397569 0.10324109 0.12074588
0003b0 5f a0 9f 3d 0e 26 76 3d 67 4b 46 be 39 b6 c5 3e
       0.0779426 0.060094886 -0.19364701 0.38615587
0003c0 89 38 8c bb af 99 1d 3e 1e e9 02 bd 95 01 0c 3e
       -0.0042792005 0.15390657 -0.0319606 0.13672478
0003d0 88 cc a2 3d 84 a4 40 bd 40 b5 92 3e 4c 34 bd be
       0.079491675 -0.047031894 0.28653908 -0.36953962
0003e0 bb 6a 19 3e 34 46 e5 be e3 48 65 3e a2 2e 32 bc
       0.1498212 -0.44780123 0.22391085 -0.010875376
0003f0 80 5d 4c bd 20 32 42 bd 73 e1 7b 3e dc 91 6c be
       -0.049893856 -0.047411084 0.24597721 -0.23102516

bias f4 [20]
000000 5f a8 73 be b3 de 16 3d f6 26 86 3d 93 ce 3b 3c
       -0.23794697 0.036833476 0.065504 0.011462825
000010 6c 3d fc bd a3 18 27 3f 77 c3 92 be b2 d7 a3 3e
       -0.12316403 0.6527197 -0.28664753 0.320005
000020 82 aa 09 bf 37 49 ab 3d ab aa 88 be fd 57 cd bb
       -0.537758 0.08363574 -0.2669271 -0.0062665925
000030 0d f0 02 3e 45 3f 22 bd 86 fe 35 3e 40 42 1d 3f
       0.12786885 -0.03961112 0.17772874 0.61429214
000040 0b aa ca 3b ee ab 5b bc 6a 6f 06 bf b9 fe 65 be
       0.0061848215 -0.01340769 -0.52513754 -0.2246045
